==========================================================================================
Layer (type:depth-idx)                   Output Shape              Param #
==========================================================================================
Lenet5                                   [64, 10]                  --
├─Sequential: 1-1                        [64, 120, 1, 1]           --
│    └─Conv2d: 2-1                       [64, 6, 28, 28]           156
│    └─Tanh: 2-2                         [64, 6, 28, 28]           --
│    └─AvgPool2d: 2-3                    [64, 6, 14, 14]           --
│    └─Conv2d: 2-4                       [64, 16, 10, 10]          2,416
│    └─Tanh: 2-5                         [64, 16, 10, 10]          --
│    └─AvgPool2d: 2-6                    [64, 16, 5, 5]            --
│    └─Conv2d: 2-7                       [64, 120, 1, 1]           48,120
│    └─Tanh: 2-8                         [64, 120, 1, 1]           --
├─Sequential: 1-2                        [64, 10]                  --
│    └─Linear: 2-9                       [64, 84]                  10,164
│    └─Tanh: 2-10                        [64, 84]                  --
│    └─Linear: 2-11                      [64, 10]                  850
==========================================================================================
Total params: 61,706
Trainable params: 61,706
Non-trainable params: 0
Total mult-adds (M): 27.07
==========================================================================================
Input size (MB): 0.20
Forward/backward pass size (MB): 3.34
Params size (MB): 0.25
Estimated Total Size (MB): 3.78
==========================================================================================
…
